Start time: 2023-07-11 13:39:27.322284
torch.Size([1024, 10]) torch.Size([1024, 1])
Sequential(
  (0): Linear(in_features=10, out_features=1024, bias=True)
  (1): ReLU()
  (2): Sequential(
    (0): Linear(in_features=1024, out_features=1024, bias=True)
    (1): ReLU()
  )
  (3): Sequential(
    (0): Linear(in_features=1024, out_features=1024, bias=True)
    (1): ReLU()
  )
  (4): Sequential(
    (0): Linear(in_features=1024, out_features=1024, bias=True)
    (1): ReLU()
  )
  (5): Linear(in_features=1024, out_features=1, bias=True)
)
Settings:
DEVICE: cuda:5 INFERENCE_TYPE: svi OBS_MODEL: homoskedastic PRIOR_LOC: 0.0 PRIOR_SCALE: 1.0 LIKELIHOOD_SCALE_LOC: 2.0 LIKELIHOOD_SCALE: 0.3 GUIDE_SCALE: 0.01 TRAIN_SIZE: 10000
Initial parameters:
net_guide.net.0.weight.loc torch.Size([1024, 10]) Parameter containing:
tensor([[-0.2089,  0.1508,  0.1643,  ...,  0.2689,  0.2351, -0.3329],
        [ 0.2061,  0.0734, -0.9134,  ...,  0.2025,  0.1104, -0.0875],
…
[6:39:56.435963] epoch: 9800 | elbo: 521894.0703125 | train_rmse: 0.4107 | val_rmse: 0.9598 | val_ll: -1.5018
[6:41:54.744129] epoch: 9850 | elbo: 511800.1453125 | train_rmse: 0.413 | val_rmse: 0.9545 | val_ll: -1.4932
[6:43:53.045275] epoch: 9900 | elbo: 508479.8040625 | train_rmse: 0.3993 | val_rmse: 0.9403 | val_ll: -1.4735
[6:45:52.583853] epoch: 9950 | elbo: 491365.28968749987 | train_rmse: 0.3937 | val_rmse: 0.9323 | val_ll: -1.4624
Training finished in 6:47:49.321200 seconds
Saved SVI model to tests/dataset-tests/sineasy10-10k-s03/models/sineasy10-4x1024-s03/checkpoint_1.pt
File Size is 24.123208045959473 MB
data samples:  (1000, 1000)
Sequential(
  (0): Linear(in_features=10, out_features=1024, bias=True)
  (1): ReLU()
  (2): Sequential(
    (0): Linear(in_features=1024, out_features=1024, bias=True)
    (1): ReLU()
  )
  (3): Sequential(
    (0): Linear(in_features=1024, out_features=1024, bias=True)
    (1): ReLU()
  )
  (4): Sequential(
    (0): Linear(in_features=1024, out_features=1024, bias=True)
    (1): ReLU()
  )
  (5): Linear(in_features=1024, out_features=1, bias=True)
)
Settings:
DEVICE: cuda:5 INFERENCE_TYPE: svi OBS_MODEL: homoskedastic PRIOR_LOC: 0.0 PRIOR_SCALE: 1.0 LIKELIHOOD_SCALE_LOC: 2.0 LIKELIHOOD_SCALE: 0.3 GUIDE_SCALE: 0.01 TRAIN_SIZE: 10000
Loaded SVI model from tests/dataset-tests/sineasy10-10k-s03/models/sineasy10-4x1024-s03/checkpoint_1.pt
using device: cuda:5
====== evaluating profile sineasy10-4x1024-s03 - 1 ======
pred samples:  (1000, 1000)
Evaluating train...
Evaluating test...
Evaluating in_domain...
Evaluating out_domain...
Eval done in 0:03:35.278629
torch.Size([1024, 10]) torch.Size([1024, 1])
Sequential(
  (0): Linear(in_features=10, out_features=1024, bias=True)
  (1): ReLU()
  (2): Sequential(
    (0): Linear(in_features=1024, out_features=1024, bias=True)
    (1): ReLU()
  )
  (3): Sequential(
    (0): Linear(in_features=1024, out_features=1024, bias=True)
    (1): ReLU()
  )
  (4): Sequential(
    (0): Linear(in_features=1024, out_features=1024, bias=True)
    (1): ReLU()
  )
  (5): Linear(in_features=1024, out_features=1, bias=True)
)
Settings:
DEVICE: cuda:5 INFERENCE_TYPE: svi OBS_MODEL: homoskedastic_gamma PRIOR_LOC: 0.0 PRIOR_SCALE: 1.0 LIKELIHOOD_SCALE_LOC: 2.0 LIKELIHOOD_SCALE: 1.0 GUIDE_SCALE: 0.01 TRAIN_SIZE: 10000
Initial parameters:
net_guide.net.0.weight.loc torch.Size([1024, 10]) Parameter containing:
tensor([[-0.2089,  0.1508,  0.1643,  ...,  0.2689,  0.2351, -0.3329],
…
