Start time: 2023-07-11 13:39:29.643604
torch.Size([1024, 10]) torch.Size([1024, 1])
Sequential(
  (0): Linear(in_features=10, out_features=512, bias=True)
  (1): ReLU()
  (2): Sequential(
    (0): Linear(in_features=512, out_features=512, bias=True)
    (1): ReLU()
  )
  (3): Sequential(
    (0): Linear(in_features=512, out_features=512, bias=True)
    (1): ReLU()
  )
  (4): Sequential(
    (0): Linear(in_features=512, out_features=512, bias=True)
    (1): ReLU()
  )
  (5): Linear(in_features=512, out_features=1, bias=True)
)
Settings:
DEVICE: cuda:6 INFERENCE_TYPE: svi OBS_MODEL: homoskedastic PRIOR_LOC: 0.0 PRIOR_SCALE: 1.0 LIKELIHOOD_SCALE_LOC: 2.0 LIKELIHOOD_SCALE: 0.3 GUIDE_SCALE: 0.01 TRAIN_SIZE: 10000
Initial parameters:
net_guide.net.0.weight.loc torch.Size([512, 10]) Parameter containing:
tensor([[-0.1835,  0.1500, -0.3897,  ...,  0.3757, -0.0117,  0.2174],
        [ 0.1416,  0.1143, -0.9134,  ..., -0.1834,  0.9524,  0.0090],
…
[6:21:36.220851] epoch: 9800 | elbo: 131009.74710937499 | train_rmse: 0.333 | val_rmse: 0.6847 | val_ll: -1.2055
[6:23:31.323864] epoch: 9850 | elbo: 129166.64671875001 | train_rmse: 0.334 | val_rmse: 0.6801 | val_ll: -1.2035
[6:25:27.430610] epoch: 9900 | elbo: 127258.828515625 | train_rmse: 0.3339 | val_rmse: 0.678 | val_ll: -1.1824
[6:27:23.006580] epoch: 9950 | elbo: 125180.92929687502 | train_rmse: 0.3335 | val_rmse: 0.6755 | val_ll: -1.2005
Training finished in 6:29:15.878096 seconds
Saved SVI model to tests/dataset-tests/sineasy10-10k-s03/models/sineasy10-4x512-s03/checkpoint_1.pt
File Size is 6.064614295959473 MB
data samples:  (1000, 1000)
Sequential(
  (0): Linear(in_features=10, out_features=512, bias=True)
  (1): ReLU()
  (2): Sequential(
    (0): Linear(in_features=512, out_features=512, bias=True)
    (1): ReLU()
  )
  (3): Sequential(
    (0): Linear(in_features=512, out_features=512, bias=True)
    (1): ReLU()
  )
  (4): Sequential(
    (0): Linear(in_features=512, out_features=512, bias=True)
    (1): ReLU()
  )
  (5): Linear(in_features=512, out_features=1, bias=True)
)
Settings:
DEVICE: cuda:6 INFERENCE_TYPE: svi OBS_MODEL: homoskedastic PRIOR_LOC: 0.0 PRIOR_SCALE: 1.0 LIKELIHOOD_SCALE_LOC: 2.0 LIKELIHOOD_SCALE: 0.3 GUIDE_SCALE: 0.01 TRAIN_SIZE: 10000
Loaded SVI model from tests/dataset-tests/sineasy10-10k-s03/models/sineasy10-4x512-s03/checkpoint_1.pt
using device: cuda:6
====== evaluating profile sineasy10-4x512-s03 - 1 ======
pred samples:  (1000, 1000)
Evaluating train...
Evaluating test...
Evaluating in_domain...
Evaluating out_domain...
Eval done in 0:03:28.068168
torch.Size([1024, 10]) torch.Size([1024, 1])
Sequential(
  (0): Linear(in_features=10, out_features=512, bias=True)
  (1): ReLU()
  (2): Sequential(
    (0): Linear(in_features=512, out_features=512, bias=True)
    (1): ReLU()
  )
  (3): Sequential(
    (0): Linear(in_features=512, out_features=512, bias=True)
    (1): ReLU()
  )
  (4): Sequential(
    (0): Linear(in_features=512, out_features=512, bias=True)
    (1): ReLU()
  )
  (5): Linear(in_features=512, out_features=1, bias=True)
)
Settings:
DEVICE: cuda:6 INFERENCE_TYPE: svi OBS_MODEL: homoskedastic_gamma PRIOR_LOC: 0.0 PRIOR_SCALE: 1.0 LIKELIHOOD_SCALE_LOC: 2.0 LIKELIHOOD_SCALE: 1.0 GUIDE_SCALE: 0.01 TRAIN_SIZE: 10000
Initial parameters:
net_guide.net.0.weight.loc torch.Size([512, 10]) Parameter containing:
tensor([[-0.1835,  0.1500, -0.3897,  ...,  0.3757, -0.0117,  0.2174],
        [ 0.1416,  0.1143, -0.9134,  ..., -0.1834,  0.9524,  0.0090],
…
